Neural Network Tools for STM32AI v1.6.0 (STM.ai v7.2.0-RC5)
Created date          : 2022-10-09 17:47:40
Parameters            : generate --name network -m D:/Desktop/candidate6_model.onnx --type onnx --compression medium --verbosity 1 --workspace C:\Users\augus\AppData\Local\Temp\mxAI_workspace29061219700710013089624907482361542 --output C:\Users\augus\.stm32cubemx\network_output --allocate-inputs --allocate-outputs

Exec/report summary (generate)
------------------------------------------------------------------------------------------------------------------------
model file            : D:\Desktop\candidate6_model.onnx
type                  : onnx
c_name                : network
compression           : medium
allocator strategy    : ['allocate-inputs', 'allocate-outputs']
workspace dir         : C:\Users\augus\AppData\Local\Temp\mxAI_workspace29061219700710013089624907482361542
output dir            : C:\Users\augus\.stm32cubemx\network_output
model_name            : candidate6_model
model_hash            : b6cce9768e194d3b8d41b12e6f4bae3d
input 1/1             : 'input_1'
                        1250 items, 4.88 KiB, ai_float, float, (1,1250,1,1), domain:activations/**default**
output 1/1            : 'node_24'
                        2 items, 8 B, ai_float, float, (1,1,1,2), domain:activations/**default**
params #              : 1,964 items (7.67 KiB)
macc                  : 57,248
weights (ro)          : 1,496 B (1.46 KiB) (1 segment) / -6,360(-81.0%) vs float model
activations (rw)      : 7,504 B (7.33 KiB) (1 segment) *
ram (total)           : 7,504 B (7.33 KiB) = 7,504 + 0 + 0

(*) input/output buffers can be used from the activations buffer

Model name - candidate6_model ['input_1'] ['node_24']
--------------------------------------------------------------------------------------------------------------------------------------------------------------------------
id   layer (type,original)                     oshape                 param/size    macc     connected to   |   c_size            c_macc              c_type             
--------------------------------------------------------------------------------------------------------------------------------------------------------------------------
7    fc1_2_weight (Placeholder, Gemm)          [h:918,c:2]            1,836/7,344                           |   -7,344(-100.0%)                       transpose_of32[4]  
     fc1_2_bias (Placeholder, Gemm)            [c:2]                  2/8                                   |   -8(-100.0%)                          
--------------------------------------------------------------------------------------------------------------------------------------------------------------------------
0    input_1 (Input, )                         [b:1,h:1250,w:1,c:1]                                         |                                        
--------------------------------------------------------------------------------------------------------------------------------------------------------------------------
1    node_17 (Conv2D, Conv)                    [b:1,h:618,w:1,c:3]    48/192        27,813   input_1        |   -192(-100.0%)     -27,813(-100.0%)   
--------------------------------------------------------------------------------------------------------------------------------------------------------------------------
2    node_18 (Nonlinearity, Relu)              [b:1,h:618,w:1,c:3]                  1,854    node_17        |   +192(+100.0%)     +27,813(+1500.2%)   conv2d_of32[0]     
--------------------------------------------------------------------------------------------------------------------------------------------------------------------------
3    node_19 (ScaleBias, BatchNormalization)   [b:1,h:618,w:1,c:3]    6/24          3,708    node_18        |                                         bn_of32[1]         
--------------------------------------------------------------------------------------------------------------------------------------------------------------------------
4    node_20 (Conv2D, Conv)                    [b:1,h:306,w:1,c:3]    66/264        19,281   node_19        |   -264(-100.0%)     -19,281(-100.0%)   
--------------------------------------------------------------------------------------------------------------------------------------------------------------------------
5    node_21 (Nonlinearity, Relu)              [b:1,h:306,w:1,c:3]                  918      node_20        |   +264(+100.0%)     +19,281(+2100.3%)   conv2d_of32[2]     
--------------------------------------------------------------------------------------------------------------------------------------------------------------------------
6    node_22 (ScaleBias, BatchNormalization)   [b:1,h:306,w:1,c:3]    6/24          1,836    node_21        |                                         bn_of32[3]         
--------------------------------------------------------------------------------------------------------------------------------------------------------------------------
7    node_23 (Reshape, Flatten)                [b:1,c:918]                                   node_22        |                                        
--------------------------------------------------------------------------------------------------------------------------------------------------------------------------
8    node_24 (Gemm, Gemm)                      [b:1,c:2]                            1,838    node_23        |   +992(+100.0%)                         dense_wc4of32[o][5]
                                                                                             fc1_2_weight   |  
                                                                                             fc1_2_bias     |  
--------------------------------------------------------------------------------------------------------------------------------------------------------------------------
model/c-model: macc=57,248/57,248  weights=7,856/1,496 -6,360(-81.0%) activations=--/7,504 io=--/0



Generated C-graph summary
------------------------------------------------------------------------------------------------------------------------
model name            : candidate6_model
c-name                : network
c-node #              : 6
c-array #             : 17
activations size      : 7504 (1 segments)
weights size          : 1496 (1 segments)
macc                  : 57248
inputs                : ['input_1_output']
outputs               : ['node_24_output']

C-Arrays (17)
----------------------------------------------------------------------------------------------------------
c_id   name (*_array)             item/size   domain/mem-pool           c-type        fmt         comment
----------------------------------------------------------------------------------------------------------
0      input_1_output             1250/5000   activations/**default**   float         float       /input 
1      node_17_output             1854/7416   activations/**default**   float         float              
2      node_19_output             1854/7416   activations/**default**   float         float              
3      node_20_output             918/3672    activations/**default**   float         float              
4      node_22_output             918/3672    activations/**default**   float         float              
5      node_23_to_chlast_output   918/3672    activations/**default**   float         float              
6      node_24_output             2/8         activations/**default**   float         float       /output
7      node_17_weights            45/180      weights/weights           const float   float              
8      node_17_bias               3/12        weights/weights           const float   float              
9      node_19_scale              3/12        weights/weights           const float   float              
10     node_19_bias               3/12        weights/weights           const float   float              
11     node_20_weights            63/252      weights/weights           const float   float              
12     node_20_bias               3/12        weights/weights           const float   float              
13     node_22_scale              3/12        weights/weights           const float   float              
14     node_22_bias               3/12        weights/weights           const float   float              
15     node_24_weights            1836/984    weights/weights           const float   c4 (LUT4)          
16     node_24_bias               2/8         weights/weights           const float   float              
----------------------------------------------------------------------------------------------------------

C-Layers (6)
-----------------------------------------------------------------------------------------------------------
c_id   name (*_layer)      id   layer_type   macc    rom   tensors                        shape (array id)
-----------------------------------------------------------------------------------------------------------
0      node_17             2    conv2d       29667   192   I: input_1_output              (1,1250,1,1) (0)
                                                           W: node_17_weights             (1,3,15,1) (7)  
                                                           W: node_17_bias                (1,1,1,3) (8)   
                                                           O: node_17_output              (1,618,1,3) (1) 
-----------------------------------------------------------------------------------------------------------
1      node_19             3    bn           3708    24    I: node_17_output              (1,618,1,3) (1) 
                                                           W: node_19_scale               (1,1,1,3) (9)   
                                                           W: node_19_bias                (1,1,1,3) (10)  
                                                           O: node_19_output              (1,618,1,3) (2) 
-----------------------------------------------------------------------------------------------------------
2      node_20             5    conv2d       20199   264   I: node_19_output              (1,618,1,3) (2) 
                                                           W: node_20_weights             (3,3,7,1) (11)  
                                                           W: node_20_bias                (1,1,1,3) (12)  
                                                           O: node_20_output              (1,306,1,3) (3) 
-----------------------------------------------------------------------------------------------------------
3      node_22             6    bn           1836    24    I: node_20_output              (1,306,1,3) (3) 
                                                           W: node_22_scale               (1,1,1,3) (13)  
                                                           W: node_22_bias                (1,1,1,3) (14)  
                                                           O: node_22_output              (1,306,1,3) (4) 
-----------------------------------------------------------------------------------------------------------
4      node_23_to_chlast   7    transpose    0       0     I: node_22_output              (1,306,1,3) (4) 
                                                           O: node_23_to_chlast_output    (1,3,306,1) (5) 
-----------------------------------------------------------------------------------------------------------
5      node_24             8    dense        1838    992   I: node_23_to_chlast_output0   (1,1,1,918) (5) 
                                                           W: node_24_weights             (918,1,1,2) (15)
                                                           W: node_24_bias                (1,1,1,2) (16)  
                                                           O: node_24_output              (1,1,1,2) (6)   
-----------------------------------------------------------------------------------------------------------



Number of operations per c-layer
--------------------------------------------------------------------------------------------------------
c_id    m_id   name (type)                     #op (type)                       #param (sparsity)      
--------------------------------------------------------------------------------------------------------
0       2      node_17 (conv2d)                         29,667 (smul_f32_f32)               48 (0.0000)
1       3      node_19 (bn)                              3,708 (smul_f32_f32)                6 (0.0000)
2       5      node_20 (conv2d)                         20,199 (smul_f32_f32)               66 (0.0000)
3       6      node_22 (bn)                              1,836 (smul_f32_f32)                6 (0.0000)
4       7      node_23_to_chlast (transpose)                 0 (smul_f32_f32)                          
5       8      node_24 (dense)                           1,838 (smul_f32_c4)             1,838 (0.0044)
--------------------------------------------------------------------------------------------------------
total                                                   57,248                           1,964 (0.0041)

  Number of operation types
  ---------------------------------------------
  smul_f32_f32              55,410       96.8%
  smul_f32_c4                1,838        3.2%

Complexity report (model)
-------------------------------------------------------------------------------
m_id   name           c_macc                    c_rom                     c_id
-------------------------------------------------------------------------------
7      fc1_2_weight   |                  0.0%   |                  0.0%   [4] 
2      node_18        ||||||||||||||||  51.8%   |||               12.8%   [0] 
3      node_19        ||                 6.5%   |                  1.6%   [1] 
5      node_21        |||||||||||       35.3%   ||||              17.6%   [2] 
6      node_22        |                  3.2%   |                  1.6%   [3] 
8      node_24        |                  3.2%   ||||||||||||||||  66.3%   [5] 
-------------------------------------------------------------------------------
macc=57,248 weights=1,496 act=7,504 ram_io=0

Generated files (7)
--------------------------------------------------------------------------
C:\Users\augus\.stm32cubemx\network_output\network_config.h
C:\Users\augus\.stm32cubemx\network_output\network.h
C:\Users\augus\.stm32cubemx\network_output\network.c
C:\Users\augus\.stm32cubemx\network_output\network_data_params.h
C:\Users\augus\.stm32cubemx\network_output\network_data_params.c
C:\Users\augus\.stm32cubemx\network_output\network_data.h
C:\Users\augus\.stm32cubemx\network_output\network_data.c
